quantized_models/ghost.tflite (tflite, 696032 bytes, 97 tensors)

tfl.pseudo_qconst1 i1 [2, 1, 1, 32]
0	0xad	-83
1	0xd5	-43
2	0x92	-110
3	0xae	-82
4	0xe6	-26
5	0xa8	-88
6	0x01	1
7	0x9d	-99
8	0x45	69
9	0x8c	-116
10	0x81	-127
11	0xe4	-28
12	0xca	-54
13	0xa2	-94
14	0xcd	-51
15	0x35	53
16	0xa4	-92
17	0x10	16
18	0xce	-50
19	0xb6	-74
20	0x86	-122
21	0xac	-84
22	0xa1	-95
23	0x94	-108
24	0x95	-107
25	0x40	64
26	0x37	55
27	0xc2	-62
28	0x41	65
29	0x96	-106
30	0xb4	-76
31	0xf8	-8
32	0xad	-83
33	0x9f	-97
34	0x81	-127
35	0xb4	-76
36	0x95	-107
37	0xb9	-71
38	0x51	81
39	0xcf	-49
40	0x3d	61
41	0xc1	-63
42	0xdf	-33
43	0x8d	-115
44	0xa8	-88
45	0x99	-103
46	0x8a	-118
47	0x42	66
48	0x95	-107
49	0x34	52
50	0xa9	-87
51	0xcc	-52
52	0xb5	-75
53	0xc8	-56
54	0x91	-111
55	0xdc	-36
56	0xba	-70
57	0x2b	43
58	0x26	38
59	0xa9	-87
60	0x55	85
61	0xb2	-78
62	0xbd	-67
63	0x4b	75

tfl.pseudo_qconst3 i1 [32, 3, 3, 32]
0	0x23	35
1	0x19	25
2	0xe7	-25
3	0x29	41
4	0x24	36
5	0xe8	-24
6	0xc6	-58
7	0x3d	61
8	0xc3	-61
9	0xe5	-27
10	0xe7	-25
11	0x0e	14
12	0x16	22
13	0x54	84
14	0x16	22
15	0x48	72
16	0xee	-18
17	0xfe	-2
18	0xf6	-10
19	0xd6	-42
20	0xde	-34
21	0x5c	92
22	0xc7	-57
23	0xc8	-56
24	0x0b	11
25	0xf5	-11
26	0xe9	-23
27	0x10	16
28	0x0c	12
29	0xdc	-36
30	0x1a	26
31	0xd9	-39
32	0xe0	-32
33	0x3b	59
34	0x95	-107
35	0xa8	-88
36	0xed	-19
37	0x0c	12
38	0x28	40
39	0xbf	-65
40	0xc9	-55
41	0xcb	-53
42	0xdf	-33
43	0xeb	-21
44	0x49	73
45	0xd2	-46
46	0x09	9
47	0x4a	74
48	0x07	7
49	0x29	41
50	0x0d	13
51	0xd8	-40
52	0x00	0
53	0x14	20
54	0x0b	11
55	0xff	-1
56	0x46	70
57	0x19	25
58	0x13	19
59	0x14	20
60	0xd6	-42
61	0x2b	43
62	0x2a	42
63	0xff	-1
64	0x39	57
65	0xb4	-76
66	0x25	37
67	0xaa	-86
68	0xde	-34
69	0x19	25
70	0x43	67
71	0x0f	15
72	0x29	41
73	0x3f	63
74	0xdf	-33
75	0x34	52
76	0xef	-17
77	0xfb	-5
78	0x02	2
79	0xc7	-57
80	0x29	41
81	0xcc	-52
82	0x46	70
83	0x0a	10
84	0x3a	58
85	0x54	84
86	0xe1	-31
87	0xea	-22
88	0xcf	-49
89	0xe9	-23
90	0xd3	-45
91	0x44	68
92	0xda	-38
93	0xef	-17
94	0x3e	62
95	0xd9	-39
96	0xc7	-57
97	0x07	7
98	0xb2	-78
99	0xaa	-86
100	0xe9	-23
101	0xcf	-49
102	0x14	20
103	0x28	40
104	0xc0	-64
105	0xe7	-25
106	0x42	66
107	0xde	-34
108	0x28	40
109	0xda	-38
110	0xae	-82
111	0x0a	10
112	0x43	67
113	0xe7	-25
114	0xb6	-74
115	0x35	53
116	0xc2	-62
117	0x27	39
118	0xc2	-62
119	0xdb	-37
120	0x31	49
121	0x16	22
122	0x4e	78
123	0xec	-20
124	0x38	56
125	0x10	16
126	0xce	-50
127	0xf5	-11
128	0x1d	29
129	0x4f	79
130	0xd4	-44
131	0x81	-127
132	0x2d	45
133	0x49	73
134	0xd8	-40
135	0xae	-82
136	0xdf	-33
137	0x1d	29
138	0xeb	-21
139	0x3a	58
140	0x10	16
141	0x38	56
142	0x87	-121
143	0x0d	13
144	0xda	-38
145	0xff	-1
146	0x49	73
147	0x48	72
148	0x34	52
149	0x0d	13
150	0xa0	-96
151	0xda	-38
152	0x4c	76
153	0xc3	-61
154	0x4d	77
155	0xf7	-9
156	0xcb	-53
157	0xe5	-27
158	0x25	37
159	0xee	-18
160	0x1d	29
161	0x25	37
162	0xf0	-16
163	0xf9	-7
164	0x4a	74
165	0xe1	-31
166	0xc2	-62
167	0x23	35
168	0xe9	-23
169	0xef	-17
170	0x10	16
171	0x29	41
172	0xe8	-24
173	0x14	20
174	0x90	-112
175	0xd7	-41
176	0x05	5
177	0xd9	-39
178	0xa1	-95
179	0x04	4
180	0x3a	58
181	0x00	0
182	0xae	-82
183	0x44	68
184	0x3f	63
185	0xc7	-57
186	0xfa	-6
187	0xeb	-21
188	0x18	24
189	0xbf	-65
190	0x1a	26
191	0xc4	-60
192	0x29	41
193	0x1d	29
194	0x03	3
195	0x12	18
196	0x43	67
197	0x06	6
198	0xf4	-12
199	0xf9	-7
200	0xfc	-4
201	0xc0	-64
202	0x0c	12
203	0x5a	90
204	0x0e	14
205	0xd2	-46
206	0x24	36
207	0xfa	-6
208	0xd6	-42
209	0xcc	-52
210	0xf4	-12
211	0xd1	-47
212	0x26	38
213	0x0a	10
214	0x91	-111
215	0xcd	-51
216	0xd6	-42
217	0x1b	27
218	0x0b	11
219	0x19	25
220	0x2d	45
221	0x1c	28
222	0x33	51
223	0x21	33
224	0xee	-18
225	0x06	6
226	0x84	-124
227	0xd4	-44
228	0x1a	26
229	0x15	21
230	0x2f	47
231	0xe0	-32
232	0xc4	-60
233	0x43	67
234	0xcc	-52
235	0x02	2
236	0xcf	-49
237	0xeb	-21
238	0xc9	-55
239	0xf8	-8
240	0x35	53
241	0xff	-1
242	0x3c	60
243	0x3c	60
244	0xe9	-23
245	0x45	69
246	0xc2	-62
247	0xf2	-14
248	0xe9	-23
249	0x2e	46
250	0x09	9
251	0xa9	-87
252	0xf7	-9
253	0xed	-19
254	0xec	-20
255	0x16	22

tfl.pseudo_qconst5 i1 [32, 3, 3, 72]
0	0xc7	-57
1	0xdb	-37
2	0xf7	-9
3	0x1e	30
4	0xee	-18
5	0x4e	78
6	0x46	70
7	0x2c	44
8	0x14	20
9	0x44	68
10	0x2c	44
11	0xf0	-16
12	0x16	22
13	0x2f	47
14	0xfc	-4
15	0xba	-70
16	0x94	-108
17	0x00	0
18	0x33	51
19	0x29	41
20	0x36	54
21	0x51	81
22	0x3c	60
23	0xc4	-60
24	0x97	-105
25	0xe3	-29
26	0x4c	76
27	0x2c	44
28	0xea	-22
29	0x12	18
30	0x19	25
31	0x4f	79
32	0xe4	-28
33	0xf0	-16
34	0xd6	-42
35	0xd9	-39
36	0x1c	28
37	0x2e	46
38	0xff	-1
39	0xf7	-9
40	0xe9	-23
41	0xb5	-75
42	0x01	1
43	0xf5	-11
44	0x2b	43
45	0x4c	76
46	0x4b	75
47	0x90	-112
48	0xea	-22
49	0x0a	10
50	0x07	7
51	0xe0	-32
52	0xd9	-39
53	0x0e	14
54	0x17	23
55	0x0b	11
56	0xf5	-11
57	0xef	-17
58	0x4d	77
59	0xd2	-46
60	0xd9	-39
61	0x1d	29
62	0x2f	47
63	0xdd	-35
64	0xbc	-68
65	0xea	-22
66	0x29	41
67	0x58	88
68	0x18	24
69	0xfa	-6
70	0x56	86
71	0x32	50
72	0xb9	-71
73	0xab	-85
74	0xe4	-28
75	0xb6	-74
76	0xe3	-29
77	0x29	41
78	0x1b	27
79	0xc3	-61
80	0x07	7
81	0xd6	-42
82	0xbc	-68
83	0x19	25
84	0x13	19
85	0x3f	63
86	0x03	3
87	0x54	84
88	0xb9	-71
89	0x0c	12
90	0x39	57
91	0x2d	45
92	0x39	57
93	0xe8	-24
94	0x19	25
95	0xd1	-47
96	0xff	-1
97	0x2e	46
98	0x38	56
99	0xce	-50
100	0xd4	-44
101	0x2e	46
102	0xf7	-9
103	0xed	-19
104	0x34	52
105	0x49	73
106	0x3b	59
107	0xce	-50
108	0xc2	-62
109	0x1e	30
110	0x12	18
111	0xec	-20
112	0x22	34
113	0xd9	-39
114	0xe3	-29
115	0x15	21
116	0xfe	-2
117	0x26	38
118	0xc7	-57
119	0xd7	-41
120	0xdc	-36
121	0x46	70
122	0x3a	58
123	0xb1	-79
124	0xb9	-71
125	0xee	-18
126	0x19	25
127	0x27	39
128	0xb8	-72
129	0x1f	31
130	0x3b	59
131	0xf5	-11
132	0xf6	-10
133	0xd7	-41
134	0x14	20
135	0xc5	-59
136	0xf4	-12
137	0xf3	-13
138	0xaa	-86
139	0x2b	43
140	0x09	9
141	0x29	41
142	0x3b	59
143	0xe7	-25
144	0x8c	-116
145	0x11	17
146	0x4a	74
147	0xc0	-64
148	0x3c	60
149	0x57	87
150	0x1f	31
151	0xb0	-80
152	0xb9	-71
153	0xb4	-76
154	0xb1	-79
155	0x2c	44
156	0xbb	-69
157	0x07	7
158	0xf4	-12
159	0xf8	-8
160	0xa4	-92
161	0x4f	79
162	0xcf	-49
163	0x3e	62
164	0xa2	-94
165	0xd1	-47
166	0xe1	-31
167	0xa6	-90
168	0xe6	-26
169	0x4e	78
170	0xc8	-56
171	0x0c	12
172	0xbf	-65
173	0x1a	26
174	0xd2	-46
175	0xce	-50
176	0xbd	-67
177	0x4b	75
178	0xcc	-52
179	0xfc	-4
180	0xbe	-66
181	0x58	88
182	0x12	18
183	0xca	-54
184	0x1c	28
185	0x34	52
186	0xbd	-67
187	0x1c	28
188	0x5c	92
189	0xef	-17
190	0xe2	-30
191	0xb5	-75
192	0x51	81
193	0x11	17
194	0xf3	-13
195	0x19	25
196	0x34	52
197	0xdd	-35
198	0xd0	-48
199	0x53	83
200	0xd0	-48
201	0xbf	-65
202	0x36	54
203	0xd9	-39
204	0xcf	-49
205	0x4b	75
206	0xcd	-51
207	0x2c	44
208	0xd4	-44
209	0x36	54
210	0xeb	-21
211	0x09	9
212	0xed	-19
213	0xd5	-43
214	0xf8	-8
215	0x07	7
216	0x0c	12
217	0xfd	-3
218	0xee	-18
219	0xe3	-29
220	0xca	-54
221	0x1d	29
222	0xef	-17
223	0xe4	-28
224	0xeb	-21
225	0x10	16
226	0x1e	30
227	0x27	39
228	0xe6	-26
229	0xd4	-44
230	0x22	34
231	0x1d	29
232	0xab	-85
233	0xe2	-30
234	0x24	36
235	0x04	4
236	0x0e	14
237	0x44	68
238	0xda	-38
239	0xb0	-80
240	0xa6	-90
241	0xd4	-44
242	0xfa	-6
243	0xf6	-10
244	0x1a	26
245	0x3a	58
246	0xf7	-9
247	0x31	49
248	0xd0	-48
249	0x39	57
250	0x14	20
251	0x3e	62
252	0xc0	-64
253	0x14	20
254	0xc8	-56
255	0x32	50

tfl.pseudo_qconst7 i1 [64, 1, 1, 64]
0	0x82	-126
1	0xf1	-15
2	0x84	-124
3	0x29	41
4	0x3b	59
5	0x53	83
6	0xa5	-91
7	0x98	-104
8	0xdf	-33
9	0xaf	-81
10	0xd7	-41
11	0x7b	123
12	0x89	-119
13	0x11	17
14	0xb0	-80
15	0xfa	-6
16	0xd8	-40
17	0x94	-108
18	0x94	-108
19	0x05	5
20	0x9b	-101
21	0xfc	-4
22	0xad	-83
23	0x9f	-97
24	0xa6	-90
25	0xbc	-68
26	0x7d	125
27	0xd4	-44
28	0x90	-112
29	0xcf	-49
30	0x94	-108
31	0xcb	-53
32	0x01	1
33	0x83	-125
34	0xea	-22
35	0x7f	127
36	0xa8	-88
37	0xa1	-95
38	0x26	38
39	0x49	73
40	0x84	-124
41	0xe9	-23
42	0x7f	127
43	0x9c	-100
44	0x64	100
45	0xa1	-95
46	0x26	38
47	0x18	24
48	0x19	25
49	0x88	-120
50	0xe7	-25
51	0x53	83
52	0xc6	-58
53	0x8f	-113
54	0x3f	63
55	0x8a	-118
56	0xa7	-89
57	0xb1	-79
58	0x35	53
59	0xeb	-21
60	0xf5	-11
61	0xac	-84
62	0x9e	-98
63	0xd7	-41
64	0x86	-122
65	0xba	-70
66	0x97	-105
67	0xb1	-79
68	0xfb	-5
69	0x23	35
70	0x62	98
71	0x13	19
72	0x96	-106
73	0xd0	-48
74	0xb8	-72
75	0xf3	-13
76	0x27	39
77	0x12	18
78	0xe9	-23
79	0xd7	-41
80	0xf1	-15
81	0xf0	-16
82	0x73	115
83	0x93	-109
84	0xc7	-57
85	0x69	105
86	0x11	17
87	0x44	68
88	0x4a	74
89	0x95	-107
90	0xf3	-13
91	0x2f	47
92	0x5f	95
93	0x23	35
94	0x6b	107
95	0x8e	-114
96	0x05	5
97	0x3e	62
98	0x77	119
99	0xf3	-13
100	0xc8	-56
101	0xe6	-26
102	0x83	-125
103	0x68	104
104	0x60	96
105	0x68	104
106	0xf9	-7
107	0x94	-108
108	0x64	100
109	0x06	6
110	0x43	67
111	0x81	-127
112	0x21	33
113	0x9a	-102
114	0x7b	123
115	0xf1	-15
116	0xa1	-95
117	0x2d	45
118	0xff	-1
119	0x17	23
120	0x83	-125
121	0xaf	-81
122	0x1b	27
123	0xd9	-39
124	0x30	48
125	0xc3	-61
126	0xc4	-60
127	0x8e	-114
128	0x27	39
129	0x27	39
130	0xd1	-47
131	0xc4	-60
132	0xa0	-96
133	0xcc	-52
134	0x18	24
135	0x0d	13
136	0x57	87
137	0x04	4
138	0x32	50
139	0xa6	-90
140	0x98	-104
141	0x14	20
142	0x71	113
143	0x7d	125
144	0x9b	-101
145	0x06	6
146	0x66	102
147	0x41	65
148	0x7f	127
149	0x19	25
150	0x2c	44
151	0x84	-124
152	0x4b	75
153	0xb3	-77
154	0x73	115
155	0xba	-70
156	0xed	-19
157	0x86	-122
158	0x79	121
159	0xe0	-32
160	0xaf	-81
161	0x7d	125
162	0xc5	-59
163	0x2c	44
164	0x1d	29
165	0xb5	-75
166	0x94	-108
167	0x59	89
168	0x73	115
169	0x42	66
170	0x24	36
171	0x92	-110
172	0x8d	-115
173	0xe6	-26
174	0x1e	30
175	0x02	2
176	0x36	54
177	0x2e	46
178	0xcf	-49
179	0x14	20
180	0xf1	-15
181	0x94	-108
182	0x3e	62
183	0xa4	-92
184	0x10	16
185	0xc6	-58
186	0x32	50
187	0xda	-38
188	0xfb	-5
189	0x17	23
190	0xd7	-41
191	0xc7	-57
192	0x50	80
193	0x7d	125
194	0xa2	-94
195	0x3f	63
196	0x7f	127
197	0x3d	61
198	0xc0	-64
199	0x2f	47
200	0xe5	-27
201	0xf4	-12
202	0x1a	26
203	0x7c	124
204	0x5c	92
205	0x5e	94
206	0x74	116
207	0xc1	-63
208	0xb0	-80
209	0xc1	-63
210	0x73	115
211	0xdd	-35
212	0xe8	-24
213	0x58	88
214	0x04	4
215	0x4c	76
216	0xdd	-35
217	0x11	17
218	0x86	-122
219	0x6d	109
220	0x8c	-116
221	0xe2	-30
222	0xa3	-93
223	0x1b	27
224	0x2d	45
225	0xae	-82
226	0x0a	10
227	0xe2	-30
228	0x30	48
229	0x20	32
230	0xbf	-65
231	0x8a	-118
232	0xda	-38
233	0x37	55
234	0xd5	-43
235	0xa5	-91
236	0x85	-123
237	0x52	82
238	0xf4	-12
239	0x27	39
240	0x27	39
241	0xe2	-30
242	0x5e	94
243	0x72	114
244	0x7c	124
245	0x54	84
246	0x99	-103
247	0xd5	-43
248	0xb5	-75
249	0xbb	-69
250	0xca	-54
251	0x15	21
252	0x1e	30
253	0x12	18
254	0x95	-107
255	0xd5	-43

tfl.pseudo_qconst9 i1 [64, 3, 3, 64]
0	0x57	87
1	0x25	37
2	0x6b	107
3	0x75	117
4	0xc6	-58
5	0x78	120
6	0x6e	110
7	0xa8	-88
8	0x7b	123
9	0xab	-85
10	0xb1	-79
11	0xbb	-69
12	0xbe	-66
13	0xe4	-28
14	0x5c	92
15	0xce	-50
16	0x92	-110
17	0xd6	-42
18	0x02	2
19	0x39	57
20	0xa3	-93
21	0x1d	29
22	0x70	112
23	0x47	71
24	0xd2	-46
25	0xfd	-3
26	0x5f	95
27	0xa3	-93
28	0xcf	-49
29	0x2e	46
30	0xa5	-91
31	0x70	112
32	0x20	32
33	0x12	18
34	0x40	64
35	0x6d	109
36	0x74	116
37	0xff	-1
38	0x49	73
39	0xbb	-69
40	0x45	69
41	0xda	-38
42	0xa4	-92
43	0x71	113
44	0x53	83
45	0x90	-112
46	0x57	87
47	0xae	-82
48	0xff	-1
49	0xcb	-53
50	0xb0	-80
51	0xd3	-45
52	0x76	118
53	0x50	80
54	0xab	-85
55	0x81	-127
56	0x7f	127
57	0x4a	74
58	0xe3	-29
59	0xad	-83
60	0xce	-50
61	0x28	40
62	0x6a	106
63	0x19	25
64	0xe8	-24
65	0x7e	126
66	0x10	16
67	0xec	-20
68	0x23	35
69	0x1a	26
70	0xea	-22
71	0x97	-105
72	0x45	69
73	0x50	80
74	0x38	56
75	0xd5	-43
76	0x44	68
77	0xa1	-95
78	0xf3	-13
79	0x8d	-115
80	0xa2	-94
81	0x92	-110
82	0x55	85
83	0x54	84
84	0xa7	-89
85	0xe0	-32
86	0x3a	58
87	0x63	99
88	0xcb	-53
89	0x0c	12
90	0x8d	-115
91	0x3d	61
92	0xd9	-39
93	0x63	99
94	0x4e	78
95	0x33	51
96	0xfb	-5
97	0xd0	-48
98	0x46	70
99	0xa5	-91
100	0x83	-125
101	0x9d	-99
102	0xa3	-93
103	0xbb	-69
104	0x5b	91
105	0x58	88
106	0x71	113
107	0x2a	42
108	0x9f	-97
109	0xd5	-43
110	0x51	81
111	0xb4	-76
112	0x15	21
113	0xc6	-58
114	0xdf	-33
115	0xf7	-9
116	0x2b	43
117	0xce	-50
118	0xa5	-91
119	0x19	25
120	0x36	54
121	0xd8	-40
122	0xfd	-3
123	0x18	24
124	0x13	19
125	0x1c	28
126	0xb6	-74
127	0x89	-119
128	0x29	41
129	0x71	113
130	0xe1	-31
131	0x38	56
132	0xdd	-35
133	0x72	114
134	0x5e	94
135	0x8a	-118
136	0xf0	-16
137	0x15	21
138	0x82	-126
139	0xd5	-43
140	0x82	-126
141	0x11	17
142	0x37	55
143	0x93	-109
144	0xd7	-41
145	0xd3	-45
146	0xd3	-45
147	0x31	49
148	0x38	56
149	0x05	5
150	0x8f	-113
151	0x7b	123
152	0x61	97
153	0x14	20
154	0x88	-120
155	0x7b	123
156	0x8b	-117
157	0xf3	-13
158	0x33	51
159	0xb2	-78
160	0x35	53
161	0x13	19
162	0x5a	90
163	0xfc	-4
164	0x88	-120
165	0x90	-112
166	0x03	3
167	0x33	51
168	0x58	88
169	0x85	-123
170	0x40	64
171	0xe7	-25
172	0x81	-127
173	0x64	100
174	0xe2	-30
175	0x4a	74
176	0xd4	-44
177	0xf7	-9
178	0xc7	-57
179	0x75	117
180	0xfa	-6
181	0xd5	-43
182	0x92	-110
183	0xcd	-51
184	0x25	37
185	0x95	-107
186	0xf2	-14
187	0x75	117
188	0xcf	-49
189	0x0b	11
190	0x8f	-113
191	0xca	-54
192	0xac	-84
193	0x95	-107
194	0x90	-112
195	0xc8	-56
196	0x2a	42
197	0xc9	-55
198	0x93	-109
199	0x4e	78
200	0x04	4
201	0xea	-22
202	0x12	18
203	0x38	56
204	0x56	86
205	0x62	98
206	0x33	51
207	0x27	39
208	0x23	35
209	0x1a	26
210	0x5a	90
211	0x58	88
212	0xf2	-14
213	0xe8	-24
214	0x89	-119
215	0xd8	-40
216	0xe6	-26
217	0x9e	-98
218	0xc9	-55
219	0xd6	-42
220	0xb4	-76
221	0x9d	-99
222	0xdc	-36
223	0x45	69
224	0x71	113
225	0x10	16
226	0xd0	-48
227	0xef	-17
228	0x15	21
229	0xdb	-37
230	0x8d	-115
231	0xaf	-81
232	0x06	6
233	0x48	72
234	0x34	52
235	0x46	70
236	0xb1	-79
237	0x66	102
238	0x1f	31
239	0xa3	-93
240	0xc8	-56
241	0x68	104
242	0x6e	110
243	0x10	16
244	0xaf	-81
245	0x55	85
246	0x5a	90
247	0x52	82
248	0x4c	76
249	0x23	35
250	0x93	-109
251	0xec	-20
252	0x9c	-100
253	0xd1	-47
254	0x03	3
255	0xe7	-25

tfl.pseudo_qconst11 i1 [64, 3, 3, 72]
0	0x5a	90
1	0x11	17
2	0xe3	-29
3	0x32	50
4	0x75	117
5	0x8d	-115
6	0x47	71
7	0x14	20
8	0x5d	93
9	0xb4	-76
10	0x06	6
11	0x8a	-118
12	0x13	19
13	0x9a	-102
14	0x77	119
15	0x93	-109
16	0xed	-19
17	0x82	-126
18	0x97	-105
19	0x69	105
20	0x3b	59
21	0xa4	-92
22	0x4e	78
23	0x2a	42
24	0xf9	-7
25	0xc9	-55
26	0x46	70
27	0x1a	26
28	0x0f	15
29	0x06	6
30	0xd5	-43
31	0x94	-108
32	0x44	68
33	0xaa	-86
34	0xe2	-30
35	0x62	98
36	0x56	86
37	0xcc	-52
38	0xd6	-42
39	0xcc	-52
40	0x29	41
41	0xe1	-31
42	0x93	-109
43	0x7c	124
44	0x88	-120
45	0xa6	-90
46	0xf7	-9
47	0x7b	123
48	0xf3	-13
49	0x68	104
50	0x24	36
51	0x2e	46
52	0xf5	-11
53	0xa9	-87
54	0xf5	-11
55	0x41	65
56	0xc0	-64
57	0x57	87
58	0xa9	-87
59	0x90	-112
60	0x7c	124
61	0x8a	-118
62	0x4a	74
63	0xf0	-16
64	0x38	56
65	0x77	119
66	0x31	49
67	0x86	-122
68	0x6e	110
69	0xc3	-61
70	0xcf	-49
71	0x12	18
72	0x9d	-99
73	0x82	-126
74	0x51	81
75	0xc7	-57
76	0x40	64
77	0x58	88
78	0x1d	29
79	0x3b	59
80	0x11	17
81	0x0e	14
82	0x39	57
83	0x92	-110
84	0x29	41
85	0xbd	-67
86	0x1c	28
87	0x4d	77
88	0xe2	-30
89	0xcd	-51
90	0xcf	-49
91	0x1a	26
92	0xfa	-6
93	0x95	-107
94	0xb6	-74
95	0xa9	-87
96	0x30	48
97	0x20	32
98	0xb1	-79
99	0x93	-109
100	0x06	6
101	0xa3	-93
102	0x2e	46
103	0x60	96
104	0xbe	-66
105	0xb9	-71
106	0x8d	-115
107	0x69	105
108	0xa1	-95
109	0x18	24
110	0x2d	45
111	0x8b	-117
112	0x0c	12
113	0x53	83
114	0x86	-122
115	0x0a	10
116	0x91	-111
117	0x0d	13
118	0x32	50
119	0xea	-22
120	0x6d	109
121	0x5e	94
122	0xad	-83
123	0x76	118
124	0xca	-54
125	0x05	5
126	0x28	40
127	0x11	17
128	0x3d	61
129	0xeb	-21
130	0x68	104
131	0xfa	-6
132	0x93	-109
133	0x26	38
134	0x59	89
135	0xb7	-73
136	0x97	-105
137	0x02	2
138	0x52	82
139	0xaf	-81
140	0x44	68
141	0xfb	-5
142	0xed	-19
143	0x62	98
144	0x73	115
145	0xe0	-32
146	0x73	115
147	0x90	-112
148	0x50	80
149	0x0f	15
150	0xc0	-64
151	0xef	-17
152	0x7e	126
153	0xbe	-66
154	0xcf	-49
155	0x09	9
156	0xdc	-36
157	0xfc	-4
158	0x8b	-117
159	0xee	-18
160	0x03	3
161	0xa5	-91
162	0x81	-127
163	0xe0	-32
164	0x18	24
165	0x3b	59
166	0xf1	-15
167	0x74	116
168	0xf0	-16
169	0xe3	-29
170	0xfe	-2
171	0xbc	-68
172	0x9a	-102
173	0x88	-120
174	0xc6	-58
175	0xc8	-56
176	0x3a	58
177	0xa6	-90
178	0x25	37
179	0xb6	-74
180	0x84	-124
181	0xcf	-49
182	0x20	32
183	0x9e	-98
184	0x66	102
185	0xb1	-79
186	0xcd	-51
187	0x66	102
188	0x4c	76
189	0x32	50
190	0xa8	-88
191	0xf0	-16
192	0x5c	92
193	0x88	-120
194	0x2d	45
195	0x66	102
196	0x30	48
197	0x05	5
198	0xf2	-14
199	0xd2	-46
200	0xa6	-90
201	0xfd	-3
202	0x60	96
203	0xf9	-7
204	0x7d	125
205	0x54	84
206	0x11	17
207	0x54	84
208	0x1d	29
209	0x31	49
210	0x52	82
211	0xae	-82
212	0xf7	-9
213	0xde	-34
214	0x04	4
215	0x43	67
216	0x2b	43
217	0xe3	-29
218	0x31	49
219	0x23	35
220	0xe2	-30
221	0x1b	27
222	0xec	-20
223	0xe5	-27
224	0x1e	30
225	0x8c	-116
226	0x9e	-98
227	0x2f	47
228	0x38	56
229	0x92	-110
230	0xb1	-79
231	0x9e	-98
232	0x25	37
233	0xc2	-62
234	0xa8	-88
235	0x6b	107
236	0x2a	42
237	0x83	-125
238	0x5f	95
239	0xa8	-88
240	0x35	53
241	0x61	97
242	0xd7	-41
243	0x56	86
244	0xf5	-11
245	0x0b	11
246	0x57	87
247	0x91	-111
248	0xed	-19
249	0x33	51
250	0x7d	125
251	0x2f	47
252	0x60	96
253	0xc2	-62
254	0xdf	-33
255	0x3a	58

tfl.pseudo_qconst13 i1 [2, 1, 1, 32]
0	0xaf	-81
1	0xbc	-68
2	0x4b	75
3	0x21	33
4	0x3d	61
5	0xb1	-79
6	0x54	84
7	0x44	68
8	0x25	37
9	0x35	53
10	0x99	-103
11	0xbd	-67
12	0x35	53
13	0xe4	-28
14	0xec	-20
15	0xad	-83
16	0x5d	93
17	0xc0	-64
18	0x52	82
19	0x8c	-116
20	0xbc	-68
21	0x96	-106
22	0x3e	62
23	0x9b	-101
24	0xc6	-58
25	0xcb	-53
26	0x26	38
27	0xcc	-52
28	0xb9	-71
29	0x81	-127
30	0xdb	-37
31	0x1e	30
32	0x83	-125
33	0xa7	-89
34	0x3b	59
35	0x61	97
36	0x4c	76
37	0xbb	-69
38	0x64	100
39	0x57	87
40	0x67	103
41	0x60	96
42	0xe8	-24
43	0xb2	-78
44	0x34	52
45	0x90	-112
46	0x81	-127
47	0xa6	-90
48	0x18	24
49	0xaf	-81
50	0x69	105
51	0xea	-22
52	0xc1	-63
53	0x95	-107
54	0x53	83
55	0xd8	-40
56	0xa8	-88
57	0x9a	-102
58	0x5f	95
59	0x90	-112
60	0xb9	-71
61	0xd7	-41
62	0x84	-124
63	0x49	73

tfl.pseudo_qconst15 i1 [32, 3, 3, 32]
0	0x49	73
1	0x4a	74
2	0xcb	-53
3	0x20	32
4	0xdb	-37
5	0xe5	-27
6	0x36	54
7	0x12	18
8	0xbf	-65
9	0xc3	-61
10	0x10	16
11	0xe8	-24
12	0xbd	-67
13	0x9c	-100
14	0xd7	-41
15	0x2e	46
16	0x1f	31
17	0xf3	-13
18	0x4d	77
19	0xbb	-69
20	0x0d	13
21	0x2c	44
22	0x14	20
23	0xd0	-48
24	0xd2	-46
25	0xcf	-49
26	0x19	25
27	0x3c	60
28	0xdb	-37
29	0x0a	10
30	0x42	66
31	0xf6	-10
32	0xf2	-14
33	0x00	0
34	0xfa	-6
35	0xfa	-6
36	0xbe	-66
37	0x01	1
38	0x25	37
39	0x1b	27
40	0xbb	-69
41	0xc6	-58
42	0x0d	13
43	0xa7	-89
44	0x30	48
45	0xce	-50
46	0x2f	47
47	0x3b	59
48	0xde	-34
49	0x3d	61
50	0x55	85
51	0xe6	-26
52	0xc0	-64
53	0xfa	-6
54	0x37	55
55	0x33	51
56	0xec	-20
57	0x18	24
58	0x0b	11
59	0x08	8
60	0xbb	-69
61	0x0d	13
62	0xda	-38
63	0x36	54
64	0xd7	-41
65	0xc3	-61
66	0xe4	-28
67	0xe2	-30
68	0xe3	-29
69	0xf1	-15
70	0x0a	10
71	0x27	39
72	0xf4	-12
73	0x2e	46
74	0x03	3
75	0xad	-83
76	0xfa	-6
77	0xb5	-75
78	0xd3	-45
79	0x3d	61
80	0x1a	26
81	0x35	53
82	0x26	38
83	0x2b	43
84	0xd5	-43
85	0x22	34
86	0xc4	-60
87	0xb1	-79
88	0xd2	-46
89	0x0b	11
90	0x20	32
91	0x3c	60
92	0xf1	-15
93	0x1b	27
94	0xdf	-33
95	0x0b	11
96	0x1c	28
97	0xae	-82
98	0xdd	-35
99	0x0e	14
100	0x84	-124
101	0xcd	-51
102	0x12	18
103	0xcd	-51
104	0xbc	-68
105	0x12	18
106	0x30	48
107	0xcd	-51
108	0x19	25
109	0xa9	-87
110	0x0e	14
111	0xe2	-30
112	0x39	57
113	0xf7	-9
114	0x44	68
115	0xff	-1
116	0xf9	-7
117	0xd6	-42
118	0xf8	-8
119	0xd5	-43
120	0xf1	-15
121	0xf7	-9
122	0xc4	-60
123	0x1a	26
124	0x02	2
125	0xf3	-13
126	0x06	6
127	0x02	2
128	0x3e	62
129	0x0d	13
130	0x17	23
131	0xfd	-3
132	0x81	-127
133	0x8e	-114
134	0xec	-20
135	0x21	33
136	0xf3	-13
137	0xce	-50
138	0x1d	29
139	0xb6	-74
140	0x3f	63
141	0x88	-120
142	0x5d	93
143	0xbf	-65
144	0x21	33
145	0xd9	-39
146	0x29	41
147	0xf5	-11
148	0xd9	-39
149	0xe7	-25
150	0xc3	-61
151	0xe9	-23
152	0xe5	-27
153	0x21	33
154	0xe3	-29
155	0xdb	-37
156	0x39	57
157	0xbf	-65
158	0x00	0
159	0x21	33
160	0x27	39
161	0xc2	-62
162	0x0b	11
163	0xbd	-67
164	0xaf	-81
165	0x9c	-100
166	0xef	-17
167	0xc8	-56
168	0xd3	-45
169	0xf7	-9
170	0xfd	-3
171	0xdc	-36
172	0x4c	76
173	0x85	-123
174	0x1d	29
175	0x31	49
176	0x2a	42
177	0xfc	-4
178	0x15	21
179	0xc1	-63
180	0x27	39
181	0x40	64
182	0xeb	-21
183	0x36	54
184	0x9f	-97
185	0xcf	-49
186	0x2f	47
187	0x45	69
188	0xcd	-51
189	0x17	23
190	0xff	-1
191	0x31	49
192	0xff	-1
193	0xe7	-25
194	0x03	3
195	0x2c	44
196	0x9b	-101
197	0xfd	-3
198	0x0c	12
199	0x09	9
200	0xfc	-4
201	0x26	38
202	0x0e	14
203	0xf8	-8
204	0x45	69
205	0x90	-112
206	0x5a	90
207	0xf6	-10
208	0x16	22
209	0x48	72
210	0x49	73
211	0x27	39
212	0x34	52
213	0x28	40
214	0x36	54
215	0x50	80
216	0xac	-84
217	0xd7	-41
218	0x0c	12
219	0xbe	-66
220	0xba	-70
221	0xcb	-53
222	0x0b	11
223	0x2d	45
224	0xb5	-75
225	0xfc	-4
226	0xb4	-76
227	0xfd	-3
228	0xa6	-90
229	0xa0	-96
230	0xf1	-15
231	0x1b	27
232	0xc9	-55
233	0x3c	60
234	0x27	39
235	0xe9	-23
236	0x05	5
237	0xe6	-26
238	0x4d	77
239	0x1d	29
240	0x48	72
241	0x1e	30
242	0x2e	46
243	0xef	-17
244	0x0f	15
245	0x08	8
246	0xf5	-11
247	0x35	53
248	0xfc	-4
249	0x02	2
250	0xc9	-55
251	0xcb	-53
252	0x1b	27
253	0x00	0
254	0xe1	-31
255	0xba	-70

tfl.pseudo_qconst17 i1 [32, 3, 3, 48]
0	0xcb	-53
1	0x26	38
2	0x1a	26
3	0xf3	-13
4	0xf1	-15
5	0xc5	-59
6	0xed	-19
7	0x02	2
8	0x18	24
9	0x22	34
10	0xe5	-27
11	0xbe	-66
12	0xf5	-11
13	0x02	2
14	0xb7	-73
15	0x1b	27
16	0xf1	-15
17	0x06	6
18	0x21	33
19	0x13	19
20	0xe2	-30
21	0x42	66
22	0xbf	-65
23	0xe7	-25
24	0x32	50
25	0x12	18
26	0xae	-82
27	0x01	1
28	0x21	33
29	0x18	24
30	0xf6	-10
31	0xa9	-87
32	0x01	1
33	0xeb	-21
34	0xbf	-65
35	0x04	4
36	0x3b	59
37	0x1b	27
38	0x08	8
39	0xca	-54
40	0x38	56
41	0x0a	10
42	0x68	104
43	0x1f	31
44	0x20	32
45	0xd0	-48
46	0xff	-1
47	0xdd	-35
48	0x44	68
49	0xdb	-37
50	0xe9	-23
51	0xed	-19
52	0xc8	-56
53	0x44	68
54	0xf0	-16
55	0x07	7
56	0x0d	13
57	0xef	-17
58	0x16	22
59	0x44	68
60	0xd9	-39
61	0x3d	61
62	0x19	25
63	0x1a	26
64	0xeb	-21
65	0x01	1
66	0x0b	11
67	0x53	83
68	0x5d	93
69	0x22	34
70	0xb5	-75
71	0x10	16
72	0xfb	-5
73	0xbd	-67
74	0xd1	-47
75	0xd3	-45
76	0x19	25
77	0x15	21
78	0xd0	-48
79	0x06	6
80	0x02	2
81	0xe2	-30
82	0xe1	-31
83	0x26	38
84	0xe1	-31
85	0x53	83
86	0xbf	-65
87	0xef	-17
88	0xe2	-30
89	0x12	18
90	0xf9	-7
91	0x45	69
92	0x16	22
93	0xb9	-71
94	0xed	-19
95	0xc4	-60
96	0x2d	45
97	0xbe	-66
98	0x22	34
99	0x25	37
100	0xe1	-31
101	0x1d	29
102	0x05	5
103	0xfa	-6
104	0xc0	-64
105	0x2d	45
106	0x16	22
107	0x30	48
108	0xeb	-21
109	0xe1	-31
110	0xd4	-44
111	0xfd	-3
112	0x0c	12
113	0xe6	-26
114	0xc5	-59
115	0x1b	27
116	0x03	3
117	0x33	51
118	0xe4	-28
119	0xe8	-24
120	0xf8	-8
121	0xca	-54
122	0x1e	30
123	0x1c	28
124	0x32	50
125	0x50	80
126	0x1a	26
127	0x0a	10
128	0x37	55
129	0xcc	-52
130	0x2b	43
131	0x35	53
132	0xc1	-63
133	0x16	22
134	0x39	57
135	0xf8	-8
136	0xd4	-44
137	0x21	33
138	0x32	50
139	0xff	-1
140	0xc6	-58
141	0xf4	-12
142	0xf7	-9
143	0xb5	-75
144	0x19	25
145	0x6a	106
146	0x32	50
147	0xfc	-4
148	0xdb	-37
149	0x06	6
150	0x27	39
151	0x2e	46
152	0x10	16
153	0x06	6
154	0x37	55
155	0x17	23
156	0xf4	-12
157	0xc9	-55
158	0x09	9
159	0xd8	-40
160	0x48	72
161	0x36	54
162	0xcb	-53
163	0x10	16
164	0x1f	31
165	0x7a	122
166	0x32	50
167	0x05	5
168	0xff	-1
169	0x3c	60
170	0x08	8
171	0x08	8
172	0x01	1
173	0xf7	-9
174	0xde	-34
175	0x20	32
176	0xd7	-41
177	0xb8	-72
178	0x14	20
179	0x3e	62
180	0xfd	-3
181	0xf1	-15
182	0x16	22
183	0xf0	-16
184	0x08	8
185	0x13	19
186	0x21	33
187	0x58	88
188	0xf4	-12
189	0x15	21
190	0x1d	29
191	0x03	3
192	0x39	57
193	0x09	9
194	0xf8	-8
195	0xe3	-29
196	0x39	57
197	0x51	81
198	0xf6	-10
199	0xe6	-26
200	0xd3	-45
201	0xe7	-25
202	0x0a	10
203	0x4b	75
204	0x22	34
205	0x7f	127
206	0xf2	-14
207	0x3f	63
208	0x06	6
209	0x13	19
210	0x0d	13
211	0x10	16
212	0x23	35
213	0xb2	-78
214	0x13	19
215	0xf8	-8
216	0xf2	-14
217	0x13	19
218	0x20	32
219	0x1c	28
220	0x4e	78
221	0x2d	45
222	0x08	8
223	0xc8	-56
224	0xd6	-42
225	0xde	-34
226	0x69	105
227	0xff	-1
228	0xd5	-43
229	0xe7	-25
230	0xe2	-30
231	0xb4	-76
232	0x2b	43
233	0x56	86
234	0x33	51
235	0xeb	-21
236	0xe7	-25
237	0xd0	-48
238	0x5b	91
239	0x22	34
240	0x11	17
241	0x22	34
242	0xf4	-12
243	0xf1	-15
244	0xef	-17
245	0x29	41
246	0xbc	-68
247	0x2c	44
248	0xd3	-45
249	0xe7	-25
250	0x00	0
251	0xf2	-14
252	0x19	25
253	0xe7	-25
254	0x2d	45
255	0x2c	44

tfl.pseudo_qconst19 i1 [64, 1, 1, 64]
0	0x69	105
1	0x41	65
2	0xc8	-56
3	0xd3	-45
4	0x15	21
5	0x71	113
6	0x00	0
7	0xb4	-76
8	0x81	-127
9	0x1d	29
10	0xd3	-45
11	0x5c	92
12	0x68	104
13	0x9a	-102
14	0xd9	-39
15	0x26	38
16	0xb3	-77
17	0x1c	28
18	0xa8	-88
19	0x00	0
20	0x52	82
21	0xb6	-74
22	0xcb	-53
23	0x15	21
24	0xa2	-94
25	0xfd	-3
26	0x2e	46
27	0xd8	-40
28	0x62	98
29	0xe1	-31
30	0x7e	126
31	0x11	17
32	0xd9	-39
33	0x4f	79
34	0x22	34
35	0x1a	26
36	0xbb	-69
37	0x11	17
38	0xa5	-91
39	0xa8	-88
40	0x67	103
41	0x2c	44
42	0xf0	-16
43	0xc8	-56
44	0x55	85
45	0x14	20
46	0xa3	-93
47	0x2a	42
48	0xf9	-7
49	0x65	101
50	0x5c	92
51	0x0d	13
52	0xb3	-77
53	0x41	65
54	0xc6	-58
55	0x54	84
56	0xc7	-57
57	0x23	35
58	0xf9	-7
59	0x2d	45
60	0x2a	42
61	0x3f	63
62	0xd4	-44
63	0xeb	-21
64	0x64	100
65	0x5e	94
66	0x51	81
67	0x91	-111
68	0x3f	63
69	0xc9	-55
70	0x8e	-114
71	0x9e	-98
72	0xac	-84
73	0xcb	-53
74	0x52	82
75	0x7f	127
76	0x06	6
77	0xcc	-52
78	0x38	56
79	0x5f	95
80	0xe1	-31
81	0x52	82
82	0x72	114
83	0xc8	-56
84	0xbf	-65
85	0xe5	-27
86	0xc3	-61
87	0xec	-20
88	0xb7	-73
89	0x6d	109
90	0x9f	-97
91	0x32	50
92	0x4d	77
93	0x5f	95
94	0x43	67
95	0x63	99
96	0x19	25
97	0x7d	125
98	0xc1	-63
99	0x98	-104
100	0x44	68
101	0xc4	-60
102	0xd4	-44
103	0xd5	-43
104	0xef	-17
105	0x5f	95
106	0x68	104
107	0x33	51
108	0x28	40
109	0xee	-18
110	0xe7	-25
111	0x85	-123
112	0x35	53
113	0xe4	-28
114	0x73	115
115	0xd7	-41
116	0xb4	-76
117	0xb5	-75
118	0x01	1
119	0x54	84
120	0x43	67
121	0xb3	-77
122	0xb4	-76
123	0x29	41
124	0x38	56
125	0x1b	27
126	0x1f	31
127	0xf0	-16
128	0x5d	93
129	0xbe	-66
130	0xd3	-45
131	0xda	-38
132	0x7e	126
133	0x13	19
134	0xe1	-31
135	0x1a	26
136	0xf5	-11
137	0xe2	-30
138	0x7d	125
139	0x3f	63
140	0x00	0
141	0x96	-106
142	0xea	-22
143	0x40	64
144	0xe8	-24
145	0x21	33
146	0x1a	26
147	0x0c	12
148	0x16	22
149	0xe3	-29
150	0xc7	-57
151	0xb2	-78
152	0x9d	-99
153	0xe5	-27
154	0xf1	-15
155	0xee	-18
156	0xda	-38
157	0x6f	111
158	0x41	65
159	0x24	36
160	0x6b	107
161	0x06	6
162	0x81	-127
163	0xa6	-90
164	0xac	-84
165	0x87	-121
166	0xff	-1
167	0x97	-105
168	0x21	33
169	0x2f	47
170	0x44	68
171	0x19	25
172	0x07	7
173	0x3f	63
174	0x12	18
175	0xe4	-28
176	0x49	73
177	0xce	-50
178	0x64	100
179	0x1f	31
180	0x6d	109
181	0x54	84
182	0x45	69
183	0xd3	-45
184	0x29	41
185	0xec	-20
186	0x0c	12
187	0x3d	61
188	0x04	4
189	0x56	86
190	0xbb	-69
191	0x2e	46
192	0x4e	78
193	0x2f	47
194	0xb9	-71
195	0xb4	-76
196	0x17	23
197	0x07	7
198	0xc8	-56
199	0x9f	-97
200	0xad	-83
201	0x86	-122
202	0xcd	-51
203	0xa3	-93
204	0x7c	124
205	0xb2	-78
206	0xe1	-31
207	0x52	82
208	0x1f	31
209	0xe0	-32
210	0xd1	-47
211	0x37	55
212	0x2a	42
213	0xba	-70
214	0xdf	-33
215	0xf9	-7
216	0x5a	90
217	0xc9	-55
218	0xfd	-3
219	0x23	35
220	0xac	-84
221	0x34	52
222	0x0a	10
223	0xd4	-44
224	0x7f	127
225	0x0a	10
226	0xa3	-93
227	0xbe	-66
228	0x0f	15
229	0xd7	-41
230	0xb3	-77
231	0x2f	47
232	0x4c	76
233	0x18	24
234	0x39	57
235	0xda	-38
236	0x07	7
237	0x47	71
238	0x25	37
239	0xcf	-49
240	0xa6	-90
241	0xa9	-87
242	0xb9	-71
243	0x32	50
244	0x3b	59
245	0x01	1
246	0x9e	-98
247	0x44	68
248	0x2d	45
249	0xd4	-44
250	0xe8	-24
251	0xf8	-8
252	0x25	37
253	0x42	66
254	0xb9	-71
255	0x5c	92

tfl.pseudo_qconst21 i1 [64, 3, 3, 64]
0	0xdf	-33
1	0xe7	-25
2	0xd2	-46
3	0x3f	63
4	0xea	-22
5	0x2e	46
6	0x5e	94
7	0x2d	45
8	0xf5	-11
9	0xcb	-53
10	0x09	9
11	0xfc	-4
12	0xc0	-64
13	0xc9	-55
14	0x2a	42
15	0x01	1
16	0x48	72
17	0xfe	-2
18	0xf0	-16
19	0xbb	-69
20	0x59	89
21	0x42	66
22	0xce	-50
23	0x09	9
24	0x0a	10
25	0x53	83
26	0xda	-38
27	0x0c	12
28	0xfa	-6
29	0xef	-17
30	0xe0	-32
31	0x2f	47
32	0xd4	-44
33	0xec	-20
34	0x27	39
35	0x39	57
36	0x15	21
37	0xf8	-8
38	0x2d	45
39	0xf5	-11
40	0x4e	78
41	0x0d	13
42	0xf4	-12
43	0xca	-54
44	0xbd	-67
45	0xcf	-49
46	0xf0	-16
47	0x02	2
48	0x54	84
49	0xbe	-66
50	0xe0	-32
51	0x34	52
52	0xd2	-46
53	0xb0	-80
54	0xb9	-71
55	0x10	16
56	0xdb	-37
57	0xf6	-10
58	0x03	3
59	0xf9	-7
60	0xd4	-44
61	0xad	-83
62	0xc6	-58
63	0x11	17
64	0xd1	-47
65	0x59	89
66	0xc0	-64
67	0xc5	-59
68	0x2f	47
69	0xdb	-37
70	0x0d	13
71	0x3f	63
72	0x05	5
73	0xcd	-51
74	0xbb	-69
75	0xa5	-91
76	0xc0	-64
77	0xc4	-60
78	0x1b	27
79	0xbd	-67
80	0xd6	-42
81	0x3e	62
82	0x18	24
83	0x9a	-102
84	0xf2	-14
85	0xd7	-41
86	0xdb	-37
87	0xfb	-5
88	0x3e	62
89	0x28	40
90	0x1a	26
91	0xc2	-62
92	0xe5	-27
93	0xc4	-60
94	0xf8	-8
95	0x1b	27
96	0xa2	-94
97	0x2a	42
98	0xf3	-13
99	0xe2	-30
100	0xbb	-69
101	0x02	2
102	0xf5	-11
103	0xcf	-49
104	0x1d	29
105	0x57	87
106	0x22	34
107	0xfc	-4
108	0xde	-34
109	0x15	21
110	0xc5	-59
111	0xe6	-26
112	0x3f	63
113	0x3c	60
114	0xcb	-53
115	0x2d	45
116	0xd9	-39
117	0xe3	-29
118	0xe2	-30
119	0x31	49
120	0x21	33
121	0xcc	-52
122	0x30	48
123	0x39	57
124	0x40	64
125	0x2d	45
126	0x05	5
127	0x1d	29
128	0x00	0
129	0x43	67
130	0x1c	28
131	0x4d	77
132	0xc5	-59
133	0xcf	-49
134	0x0c	12
135	0x3b	59
136	0xaf	-81
137	0x10	16
138	0xce	-50
139	0xad	-83
140	0xb7	-73
141	0x2c	44
142	0x4e	78
143	0xdf	-33
144	0xc6	-58
145	0xc7	-57
146	0xc4	-60
147	0xbe	-66
148	0x62	98
149	0xf4	-12
150	0x4c	76
151	0xc6	-58
152	0x3a	58
153	0x2e	46
154	0x00	0
155	0xdb	-37
156	0xe1	-31
157	0xe5	-27
158	0x5d	93
159	0xec	-20
160	0x05	5
161	0x08	8
162	0xe5	-27
163	0x31	49
164	0x37	55
165	0xeb	-21
166	0x21	33
167	0x91	-111
168	0x18	24
169	0xf5	-11
170	0xbc	-68
171	0xe4	-28
172	0xc6	-58
173	0xcc	-52
174	0xaf	-81
175	0xec	-20
176	0x4e	78
177	0xd6	-42
178	0xdb	-37
179	0xe0	-32
180	0x22	34
181	0xc9	-55
182	0x23	35
183	0x4e	78
184	0x16	22
185	0xa8	-88
186	0x03	3
187	0x27	39
188	0xe6	-26
189	0x0c	12
190	0xc8	-56
191	0xc0	-64
192	0xfc	-4
193	0x16	22
194	0x1f	31
195	0xae	-82
196	0x38	56
197	0xa5	-91
198	0x3a	58
199	0x56	86
200	0xb9	-71
201	0xeb	-21
202	0x38	56
203	0x25	37
204	0xd7	-41
205	0xc7	-57
206	0x01	1
207	0x3f	63
208	0xb9	-71
209	0xc8	-56
210	0xc7	-57
211	0xf6	-10
212	0xe4	-28
213	0xbf	-65
214	0x3f	63
215	0xfc	-4
216	0x4a	74
217	0xfd	-3
218	0x1a	26
219	0x24	36
220	0x3d	61
221	0xc9	-55
222	0xd9	-39
223	0xcf	-49
224	0xbc	-68
225	0x29	41
226	0xee	-18
227	0x24	36
228	0x23	35
229	0x15	21
230	0x02	2
231	0xfb	-5
232	0xf1	-15
233	0x18	24
234	0x30	48
235	0x02	2
236	0xb8	-72
237	0x07	7
238	0xe2	-30
239	0xb2	-78
240	0x0c	12
241	0xa9	-87
242	0xbc	-68
243	0xb5	-75
244	0xd2	-46
245	0xc5	-59
246	0x24	36
247	0x33	51
248	0x0a	10
249	0xd2	-46
250	0x32	50
251	0x05	5
252	0xf1	-15
253	0x2a	42
254	0x10	16
255	0x10	16

tfl.pseudo_qconst23 i1 [64, 3, 3, 48]
0	0x3b	59
1	0xf7	-9
2	0x4a	74
3	0xef	-17
4	0x3b	59
5	0xf2	-14
6	0x3a	58
7	0xd5	-43
8	0xc8	-56
9	0x12	18
10	0xcf	-49
11	0xe2	-30
12	0xda	-38
13	0x1c	28
14	0xd8	-40
15	0xe1	-31
16	0x2a	42
17	0x34	52
18	0xe7	-25
19	0xec	-20
20	0xac	-84
21	0x33	51
22	0xf2	-14
23	0x09	9
24	0x25	37
25	0xe4	-28
26	0xc6	-58
27	0x0d	13
28	0xfd	-3
29	0xf1	-15
30	0x0a	10
31	0x3b	59
32	0xf4	-12
33	0x2a	42
34	0x11	17
35	0x51	81
36	0x0b	11
37	0xd1	-47
38	0xf5	-11
39	0x0d	13
40	0xf8	-8
41	0x30	48
42	0x1b	27
43	0xda	-38
44	0xd6	-42
45	0xcf	-49
46	0xf4	-12
47	0xdb	-37
48	0xc0	-64
49	0xb6	-74
50	0xe8	-24
51	0xf6	-10
52	0x23	35
53	0x1f	31
54	0x52	82
55	0x3e	62
56	0xe0	-32
57	0x41	65
58	0xf3	-13
59	0x37	55
60	0x23	35
61	0xb7	-73
62	0x48	72
63	0x25	37
64	0x3b	59
65	0xe5	-27
66	0x14	20
67	0x16	22
68	0xbf	-65
69	0x4d	77
70	0x18	24
71	0xe9	-23
72	0xce	-50
73	0x18	24
74	0xda	-38
75	0xe1	-31
76	0x3f	63
77	0xe3	-29
78	0x67	103
79	0x01	1
80	0x17	23
81	0xea	-22
82	0x12	18
83	0xcc	-52
84	0xcc	-52
85	0xed	-19
86	0xed	-19
87	0x18	24
88	0x52	82
89	0xed	-19
90	0x1e	30
91	0x23	35
92	0x3b	59
93	0xd3	-45
94	0xc0	-64
95	0xc0	-64
96	0xc3	-61
97	0xd9	-39
98	0xb1	-79
99	0x59	89
100	0x2e	46
101	0x68	104
102	0x27	39
103	0xc2	-62
104	0x0b	11
105	0x65	101
106	0xf7	-9
107	0x12	18
108	0xe6	-26
109	0xcc	-52
110	0xd4	-44
111	0x0e	14
112	0x15	21
113	0x4a	74
114	0xfa	-6
115	0x40	64
116	0xd3	-45
117	0x55	85
118	0x49	73
119	0xc5	-59
120	0xcb	-53
121	0xf5	-11
122	0xd7	-41
123	0xe8	-24
124	0x30	48
125	0xe4	-28
126	0x5e	94
127	0xc8	-56
128	0x3a	58
129	0xd1	-47
130	0x02	2
131	0xce	-50
132	0x65	101
133	0x3b	59
134	0xd4	-44
135	0xf5	-11
136	0x2b	43
137	0xe4	-28
138	0x54	84
139	0x2a	42
140	0xcd	-51
141	0x3a	58
142	0xe0	-32
143	0x2e	46
144	0xd1	-47
145	0xeb	-21
146	0xdd	-35
147	0x5b	91
148	0xd6	-42
149	0x5e	94
150	0x29	41
151	0x1b	27
152	0x4b	75
153	0xca	-54
154	0xdd	-35
155	0xc2	-62
156	0xc6	-58
157	0xc3	-61
158	0x12	18
159	0xb6	-74
160	0x39	57
161	0x06	6
162	0xe0	-32
163	0x65	101
164	0xf9	-7
165	0x0b	11
166	0xf7	-9
167	0xc1	-63
168	0xde	-34
169	0xb8	-72
170	0x04	4
171	0xde	-34
172	0xd2	-46
173	0x39	57
174	0xfe	-2
175	0xf3	-13
176	0xd7	-41
177	0x1f	31
178	0x34	52
179	0xd7	-41
180	0xe8	-24
181	0x0a	10
182	0x1c	28
183	0xee	-18
184	0xe2	-30
185	0x13	19
186	0x26	38
187	0xfd	-3
188	0xf8	-8
189	0x51	81
190	0xf1	-15
191	0x0f	15
192	0xfe	-2
193	0xf2	-14
194	0xf1	-15
195	0x30	48
196	0x4a	74
197	0xdf	-33
198	0x45	69
199	0x2b	43
200	0x03	3
201	0x05	5
202	0x06	6
203	0xc3	-61
204	0x10	16
205	0xe1	-31
206	0xe3	-29
207	0x19	25
208	0x01	1
209	0x2d	45
210	0xec	-20
211	0x5d	93
212	0xdf	-33
213	0xe6	-26
214	0xf4	-12
215	0x09	9
216	0x1c	28
217	0xb5	-75
218	0xfc	-4
219	0x32	50
220	0xe2	-30
221	0x15	21
222	0xe8	-24
223	0x4c	76
224	0xf8	-8
225	0xef	-17
226	0xf6	-10
227	0x35	53
228	0x5e	94
229	0xcb	-53
230	0xed	-19
231	0xc8	-56
232	0xdb	-37
233	0x28	40
234	0x46	70
235	0xdf	-33
236	0xe7	-25
237	0xc2	-62
238	0x54	84
239	0x0a	10
240	0x59	89
241	0x4f	79
242	0x13	19
243	0xf4	-12
244	0x02	2
245	0x5a	90
246	0xc8	-56
247	0xcf	-49
248	0x42	66
249	0x06	6
250	0x2b	43
251	0xe3	-29
252	0xcb	-53
253	0x1a	26
254	0x3b	59
255	0xf4	-12

tfl.pseudo_qconst25 i1 [2, 1, 1, 32]
0	0x44	68
1	0x81	-127
2	0x8b	-117
3	0x34	52
4	0xb4	-76
5	0xa6	-90
6	0xb3	-77
7	0xc9	-55
8	0xd4	-44
9	0x8f	-113
10	0x54	84
11	0x5d	93
12	0x90	-112
13	0x8f	-113
14	0xed	-19
15	0xc9	-55
16	0x46	70
17	0xac	-84
18	0x2e	46
19	0xaa	-86
20	0xc8	-56
21	0x0f	15
22	0x46	70
23	0x91	-111
24	0x2b	43
25	0xb1	-79
26	0x11	17
27	0xa4	-92
28	0xa3	-93
29	0x45	69
30	0x49	73
31	0xba	-70
32	0x23	35
33	0xfa	-6
34	0xc5	-59
35	0x16	22
36	0xc6	-58
37	0x9e	-98
38	0xad	-83
39	0xb0	-80
40	0x81	-127
41	0xb9	-71
42	0x3a	58
43	0xf1	-15
44	0xa1	-95
45	0xe1	-31
46	0x8e	-114
47	0x9d	-99
48	0x28	40
49	0xcc	-52
50	0x1a	26
51	0xb7	-73
52	0x95	-107
53	0x4b	75
54	0x2a	42
55	0xde	-34
56	0x46	70
57	0xa9	-87
58	0x3e	62
59	0xb0	-80
60	0xb0	-80
61	0x03	3
62	0x4c	76
63	0xa7	-89

tfl.pseudo_qconst27 i1 [32, 3, 3, 32]
0	0x3a	58
1	0xd1	-47
2	0xb9	-71
3	0xf7	-9
4	0xc9	-55
5	0x16	22
6	0xd1	-47
7	0xd3	-45
8	0x81	-127
9	0x0f	15
10	0x17	23
11	0x23	35
12	0xfe	-2
13	0xe9	-23
14	0x3d	61
15	0x0f	15
16	0xc9	-55
17	0x21	33
18	0x32	50
19	0x26	38
20	0xa5	-91
21	0x1a	26
22	0xb8	-72
23	0xa3	-93
24	0x0f	15
25	0xc6	-58
26	0x05	5
27	0xfc	-4
28	0x40	64
29	0xdf	-33
30	0x28	40
31	0xf1	-15
32	0xe8	-24
33	0xb0	-80
34	0x0e	14
35	0xcb	-53
36	0x26	38
37	0xaa	-86
38	0x37	55
39	0x3f	63
40	0x9c	-100
41	0x0c	12
42	0xc9	-55
43	0x10	16
44	0xe1	-31
45	0x01	1
46	0x0e	14
47	0xd8	-40
48	0x93	-109
49	0xf1	-15
50	0xf0	-16
51	0xf0	-16
52	0xfa	-6
53	0xb8	-72
54	0x14	20
55	0x11	17
56	0xc2	-62
57	0x24	36
58	0x00	0
59	0x25	37
60	0x17	23
61	0x32	50
62	0xc7	-57
63	0x1d	29
64	0xef	-17
65	0xef	-17
66	0x0e	14
67	0xbe	-66
68	0x07	7
69	0x42	66
70	0x3e	62
71	0xd4	-44
72	0x39	57
73	0xd5	-43
74	0x18	24
75	0x3b	59
76	0x23	35
77	0xd2	-46
78	0x04	4
79	0x3a	58
80	0x2f	47
81	0xf3	-13
82	0x04	4
83	0xe8	-24
84	0xf6	-10
85	0x0f	15
86	0x41	65
87	0xb4	-76
88	0xed	-19
89	0x10	16
90	0xf5	-11
91	0xbc	-68
92	0xf2	-14
93	0x0d	13
94	0x06	6
95	0xc4	-60
96	0xf9	-7
97	0x90	-112
98	0x10	16
99	0x25	37
100	0x28	40
101	0xad	-83
102	0xdc	-36
103	0xdc	-36
104	0x9c	-100
105	0xf4	-12
106	0xdf	-33
107	0xda	-38
108	0x1d	29
109	0x25	37
110	0xde	-34
111	0x0b	11
112	0x0b	11
113	0xdf	-33
114	0x2e	46
115	0xe6	-26
116	0xf3	-13
117	0x1a	26
118	0x91	-111
119	0xb4	-76
120	0xb9	-71
121	0xbf	-65
122	0xf9	-7
123	0xeb	-21
124	0x23	35
125	0x1e	30
126	0x3f	63
127	0xdf	-33
128	0xda	-38
129	0x33	51
130	0x28	40
131	0x09	9
132	0xf9	-7
133	0x22	34
134	0xb8	-72
135	0xce	-50
136	0x81	-127
137	0xfc	-4
138	0x1f	31
139	0x30	48
140	0xed	-19
141	0x12	18
142	0xe6	-26
143	0x35	53
144	0xcf	-49
145	0x56	86
146	0xce	-50
147	0x30	48
148	0x89	-119
149	0x40	64
150	0x33	51
151	0xe2	-30
152	0xda	-38
153	0x39	57
154	0x3a	58
155	0x0a	10
156	0x30	48
157	0xd7	-41
158	0xc1	-63
159	0xf1	-15
160	0xc7	-57
161	0x31	49
162	0x12	18
163	0x3f	63
164	0xbd	-67
165	0xe6	-26
166	0xd5	-43
167	0xff	-1
168	0xf4	-12
169	0xf4	-12
170	0xed	-19
171	0x23	35
172	0xcd	-51
173	0x20	32
174	0xf1	-15
175	0xc1	-63
176	0x03	3
177	0x35	53
178	0x0d	13
179	0xcf	-49
180	0xe7	-25
181	0xd8	-40
182	0xd7	-41
183	0xb7	-73
184	0xb6	-74
185	0x39	57
186	0x3d	61
187	0xfb	-5
188	0x2b	43
189	0x1e	30
190	0xe9	-23
191	0x08	8
192	0xcb	-53
193	0xb8	-72
194	0xcf	-49
195	0x07	7
196	0x1d	29
197	0xb1	-79
198	0xc7	-57
199	0xd2	-46
200	0xcb	-53
201	0x19	25
202	0x02	2
203	0x2e	46
204	0x17	23
205	0xbe	-66
206	0x31	49
207	0xf1	-15
208	0x14	20
209	0x13	19
210	0x0f	15
211	0x20	32
212	0x02	2
213	0x00	0
214	0x99	-103
215	0xe8	-24
216	0xd2	-46
217	0xff	-1
218	0xc9	-55
219	0xdb	-37
220	0x42	66
221	0xdb	-37
222	0x2e	46
223	0x9f	-97
224	0xcf	-49
225	0xee	-18
226	0x12	18
227	0xbd	-67
228	0xd0	-48
229	0x0c	12
230	0xc1	-63
231	0xe3	-29
232	0xfb	-5
233	0xf6	-10
234	0x19	25
235	0x15	21
236	0xfd	-3
237	0xe0	-32
238	0x28	40
239	0x50	80
240	0xeb	-21
241	0x16	22
242	0x27	39
243	0xd6	-42
244	0xae	-82
245	0x27	39
246	0x0b	11
247	0xd6	-42
248	0xe7	-25
249	0xc3	-61
250	0xcc	-52
251	0x0a	10
252	0x3e	62
253	0xf6	-10
254	0xed	-19
255	0xb6	-74

tfl.pseudo_qconst29 i1 [32, 3, 3, 32]
0	0xbe	-66
1	0xfb	-5
2	0x19	25
3	0x33	51
4	0x0e	14
5	0xf7	-9
6	0xce	-50
7	0xe8	-24
8	0x25	37
9	0x2a	42
10	0x0d	13
11	0x2c	44
12	0x05	5
13	0x1f	31
14	0x22	34
15	0xed	-19
16	0x04	4
17	0x00	0
18	0x4f	79
19	0x3a	58
20	0xcf	-49
21	0xe9	-23
22	0xc8	-56
23	0xb5	-75
24	0xdd	-35
25	0xfa	-6
26	0x38	56
27	0x20	32
28	0x19	25
29	0x2e	46
30	0x37	55
31	0x05	5
32	0xe2	-30
33	0x11	17
34	0xde	-34
35	0x22	34
36	0x30	48
37	0x0d	13
38	0x08	8
39	0xed	-19
40	0xcb	-53
41	0x40	64
42	0x34	52
43	0xd8	-40
44	0xfa	-6
45	0xed	-19
46	0x04	4
47	0x0b	11
48	0x00	0
49	0xd9	-39
50	0x31	49
51	0x3f	63
52	0xfc	-4
53	0xe5	-27
54	0xe3	-29
55	0x0c	12
56	0xeb	-21
57	0xf3	-13
58	0xd4	-44
59	0xf7	-9
60	0x40	64
61	0x01	1
62	0x33	51
63	0xfb	-5
64	0xd1	-47
65	0xd8	-40
66	0xc8	-56
67	0xf4	-12
68	0xec	-20
69	0xd2	-46
70	0xcc	-52
71	0x0b	11
72	0xe8	-24
73	0xda	-38
74	0x11	17
75	0x00	0
76	0xc6	-58
77	0x26	38
78	0xde	-34
79	0xfa	-6
80	0x06	6
81	0x0e	14
82	0xf7	-9
83	0x2c	44
84	0xc1	-63
85	0x2d	45
86	0x03	3
87	0x0b	11
88	0xc1	-63
89	0x19	25
90	0x23	35
91	0xe7	-25
92	0xfe	-2
93	0xe4	-28
94	0x01	1
95	0x12	18
96	0x14	20
97	0x3b	59
98	0xd6	-42
99	0xe9	-23
100	0xb1	-79
101	0xfd	-3
102	0xed	-19
103	0x1e	30
104	0x17	23
105	0xec	-20
106	0x31	49
107	0xd5	-43
108	0xe0	-32
109	0x27	39
110	0x25	37
111	0x01	1
112	0xc5	-59
113	0xd2	-46
114	0x14	20
115	0x25	37
116	0xd1	-47
117	0xe4	-28
118	0xdd	-35
119	0xd6	-42
120	0x0b	11
121	0xd3	-45
122	0xfa	-6
123	0x2e	46
124	0x04	4
125	0xf0	-16
126	0xe2	-30
127	0x69	105
128	0x0d	13
129	0xfd	-3
130	0x30	48
131	0xcc	-52
132	0x27	39
133	0xed	-19
134	0xfe	-2
135	0x2e	46
136	0x11	17
137	0xec	-20
138	0xfd	-3
139	0xfd	-3
140	0xef	-17
141	0x1c	28
142	0xd5	-43
143	0xd4	-44
144	0xdf	-33
145	0x03	3
146	0xef	-17
147	0x1f	31
148	0xdb	-37
149	0x1f	31
150	0xc2	-62
151	0x02	2
152	0xf4	-12
153	0xc7	-57
154	0xf7	-9
155	0xf5	-11
156	0x40	64
157	0x46	70
158	0xef	-17
159	0x38	56
160	0xeb	-21
161	0x4a	74
162	0xd3	-45
163	0xf2	-14
164	0xda	-38
165	0x4b	75
166	0x27	39
167	0xea	-22
168	0xec	-20
169	0x1b	27
170	0xe0	-32
171	0xda	-38
172	0xd8	-40
173	0x03	3
174	0xf4	-12
175	0x3a	58
176	0xf0	-16
177	0xe3	-29
178	0x0f	15
179	0xe9	-23
180	0xfd	-3
181	0x24	36
182	0x31	49
183	0x25	37
184	0x2d	45
185	0xb7	-73
186	0x36	54
187	0x1d	29
188	0x0d	13
189	0xea	-22
190	0xcc	-52
191	0xda	-38
192	0x16	22
193	0x4e	78
194	0x17	23
195	0xdb	-37
196	0xdd	-35
197	0x07	7
198	0xf8	-8
199	0xec	-20
200	0xbe	-66
201	0x17	23
202	0x10	16
203	0x16	22
204	0xe3	-29
205	0x15	21
206	0xe4	-28
207	0x2b	43
208	0xcc	-52
209	0xd5	-43
210	0xd0	-48
211	0xff	-1
212	0xc3	-61
213	0x15	21
214	0x81	-127
215	0x0b	11
216	0x24	36
217	0xb3	-77
218	0xe0	-32
219	0xd1	-47
220	0x17	23
221	0x37	55
222	0x40	64
223	0x0b	11
224	0x1b	27
225	0x05	5
226	0xe6	-26
227	0x2e	46
228	0xcc	-52
229	0x2d	45
230	0x1e	30
231	0x00	0
232	0xd2	-46
233	0x14	20
234	0xea	-22
235	0xca	-54
236	0xaa	-86
237	0x3d	61
238	0xd2	-46
239	0xd4	-44
240	0xc5	-59
241	0x41	65
242	0x0f	15
243	0x0d	13
244	0xe7	-25
245	0x2e	46
246	0xe2	-30
247	0xe1	-31
248	0x11	17
249	0xa4	-92
250	0x1b	27
251	0x25	37
252	0xf0	-16
253	0x2a	42
254	0xe8	-24
255	0xc2	-62

tfl.pseudo_qconst31 i1 [64, 1, 1, 64]
0	0xe3	-29
1	0x0f	15
2	0x26	38
3	0x5b	91
4	0x2f	47
5	0x23	35
6	0xc6	-58
7	0x09	9
8	0x26	38
9	0xf8	-8
10	0xbd	-67
11	0xdf	-33
12	0x45	69
13	0x10	16
14	0x54	84
15	0x41	65
16	0xf9	-7
17	0xbf	-65
18	0x9e	-98
19	0xff	-1
20	0xf1	-15
21	0x2d	45
22	0x19	25
23	0x14	20
24	0x2d	45
25	0xf9	-7
26	0xf5	-11
27	0xc9	-55
28	0x18	24
29	0x35	53
30	0x7a	122
31	0x25	37
32	0xe8	-24
33	0x04	4
34	0x3c	60
35	0x2c	44
36	0x56	86
37	0xc1	-63
38	0xd9	-39
39	0x3b	59
40	0x49	73
41	0x46	70
42	0x0d	13
43	0x3e	62
44	0xde	-34
45	0x7f	127
46	0xfc	-4
47	0x04	4
48	0xf5	-11
49	0x2e	46
50	0xf5	-11
51	0xf2	-14
52	0xe4	-28
53	0xfa	-6
54	0x4d	77
55	0xe4	-28
56	0xc8	-56
57	0xf7	-9
58	0x08	8
59	0xc4	-60
60	0xde	-34
61	0xdc	-36
62	0x20	32
63	0x16	22
64	0xa9	-87
65	0x37	55
66	0x22	34
67	0x46	70
68	0x5d	93
69	0xcf	-49
70	0xe2	-30
71	0x10	16
72	0xaf	-81
73	0x6e	110
74	0x2a	42
75	0x1a	26
76	0x79	121
77	0x7f	127
78	0x63	99
79	0x4c	76
80	0x6d	109
81	0x0b	11
82	0xf8	-8
83	0x5c	92
84	0x6c	108
85	0x1e	30
86	0xb4	-76
87	0xf7	-9
88	0x2b	43
89	0xfb	-5
90	0x4e	78
91	0x5c	92
92	0xff	-1
93	0x41	65
94	0x7e	126
95	0x04	4
96	0x51	81
97	0xbe	-66
98	0x35	53
99	0x6b	107
100	0x18	24
101	0x42	66
102	0xd4	-44
103	0x33	51
104	0x2f	47
105	0x19	25
106	0x00	0
107	0x00	0
108	0x9a	-102
109	0xd2	-46
110	0xec	-20
111	0xc3	-61
112	0x60	96
113	0xa9	-87
114	0xc3	-61
115	0x28	40
116	0x2b	43
117	0xe9	-23
118	0x55	85
119	0x26	38
120	0xc0	-64
121	0xa4	-92
122	0xfa	-6
123	0x25	37
124	0x02	2
125	0xb7	-73
126	0x8e	-114
127	0x24	36
128	0x24	36
129	0x2f	47
130	0x10	16
131	0xe2	-30
132	0x20	32
133	0x3a	58
134	0x36	54
135	0x49	73
136	0x0c	12
137	0x4d	77
138	0xf5	-11
139	0x18	24
140	0x72	114
141	0x7f	127
142	0x21	33
143	0xfa	-6
144	0x55	85
145	0x25	37
146	0x32	50
147	0x20	32
148	0xf7	-9
149	0xc6	-58
150	0x4d	77
151	0x06	6
152	0xf7	-9
153	0x44	68
154	0x08	8
155	0x41	65
156	0x0d	13
157	0x38	56
158	0xa8	-88
159	0x28	40
160	0x2c	44
161	0x2c	44
162	0x01	1
163	0x42	66
164	0xd2	-46
165	0xef	-17
166	0xc3	-61
167	0xf3	-13
168	0x29	41
169	0xae	-82
170	0x03	3
171	0xf1	-15
172	0xf3	-13
173	0x03	3
174	0xfb	-5
175	0x00	0
176	0x3d	61
177	0x19	25
178	0x12	18
179	0x19	25
180	0x02	2
181	0x03	3
182	0x56	86
183	0xd7	-41
184	0xf1	-15
185	0x15	21
186	0xf9	-7
187	0x1e	30
188	0xd6	-42
189	0x15	21
190	0xbe	-66
191	0xfa	-6
192	0x2a	42
193	0x19	25
194	0x3d	61
195	0xcd	-51
196	0x1a	26
197	0x4b	75
198	0x10	16
199	0x27	39
200	0x18	24
201	0x07	7
202	0x0c	12
203	0x02	2
204	0xec	-20
205	0x3f	63
206	0x43	67
207	0x0c	12
208	0x0b	11
209	0x1d	29
210	0xfa	-6
211	0x14	20
212	0x3a	58
213	0xc2	-62
214	0xea	-22
215	0xf0	-16
216	0xe3	-29
217	0x10	16
218	0x07	7
219	0xe4	-28
220	0x0e	14
221	0xdc	-36
222	0x81	-127
223	0xf1	-15
224	0x44	68
225	0xff	-1
226	0xc7	-57
227	0xde	-34
228	0x03	3
229	0xdd	-35
230	0xe6	-26
231	0x35	53
232	0xfc	-4
233	0x20	32
234	0xdb	-37
235	0x21	33
236	0x15	21
237	0xdf	-33
238	0x23	35
239	0x0a	10
240	0x0f	15
241	0xf1	-15
242	0x34	52
243	0x12	18
244	0xe6	-26
245	0x35	53
246	0xf7	-9
247	0xe7	-25
248	0x44	68
249	0xfe	-2
250	0xec	-20
251	0x1c	28
252	0x0b	11
253	0x20	32
254	0xf3	-13
255	0xe8	-24

tfl.pseudo_qconst33 i1 [64, 3, 3, 64]
0	0xe7	-25
1	0x03	3
2	0xf2	-14
3	0xf2	-14
4	0xff	-1
5	0xf7	-9
6	0xf4	-12
7	0x53	83
8	0x19	25
9	0x1c	28
10	0xe1	-31
11	0x2a	42
12	0xb2	-78
13	0xf7	-9
14	0xbd	-67
15	0xfe	-2
16	0xe4	-28
17	0x08	8
18	0xcd	-51
19	0xf5	-11
20	0x4e	78
21	0xe6	-26
22	0xf4	-12
23	0xd4	-44
24	0x05	5
25	0x10	16
26	0x49	73
27	0xd5	-43
28	0xe7	-25
29	0x0c	12
30	0xef	-17
31	0xe9	-23
32	0xfb	-5
33	0x2e	46
34	0xe0	-32
35	0x25	37
36	0x0e	14
37	0xdc	-36
38	0x14	20
39	0x35	53
40	0xf9	-7
41	0xfe	-2
42	0x25	37
43	0x00	0
44	0x0a	10
45	0x18	24
46	0x14	20
47	0xce	-50
48	0x1d	29
49	0xd5	-43
50	0x47	71
51	0xfb	-5
52	0x16	22
53	0xf7	-9
54	0x40	64
55	0x8c	-116
56	0xc9	-55
57	0xd0	-48
58	0x58	88
59	0x3f	63
60	0xec	-20
61	0xfa	-6
62	0x50	80
63	0x81	-127
64	0x2c	44
65	0xc6	-58
66	0xf0	-16
67	0x18	24
68	0xf3	-13
69	0xbe	-66
70	0x1a	26
71	0x1a	26
72	0x20	32
73	0x38	56
74	0x0f	15
75	0x1a	26
76	0xf3	-13
77	0x15	21
78	0xf2	-14
79	0x0a	10
80	0xf3	-13
81	0x09	9
82	0xee	-18
83	0xd9	-39
84	0x36	54
85	0xe8	-24
86	0x2a	42
87	0x08	8
88	0xf6	-10
89	0xf4	-12
90	0x3a	58
91	0xc4	-60
92	0xdc	-36
93	0xe2	-30
94	0x13	19
95	0x10	16
96	0x2f	47
97	0x24	36
98	0x15	21
99	0x2d	45
100	0x23	35
101	0x20	32
102	0x3c	60
103	0x38	56
104	0xf7	-9
105	0xfe	-2
106	0x34	52
107	0x0f	15
108	0x03	3
109	0x05	5
110	0x01	1
111	0xd3	-45
112	0x0c	12
113	0xd5	-43
114	0x2f	47
115	0xf9	-7
116	0x03	3
117	0x15	21
118	0xd2	-46
119	0xf4	-12
120	0x01	1
121	0x03	3
122	0x1e	30
123	0x14	20
124	0x12	18
125	0x23	35
126	0xff	-1
127	0xe8	-24
128	0x13	19
129	0xdf	-33
130	0xf8	-8
131	0x1a	26
132	0xa4	-92
133	0x1f	31
134	0xf9	-7
135	0xde	-34
136	0x41	65
137	0x2f	47
138	0x03	3
139	0xea	-22
140	0x2e	46
141	0x0c	12
142	0xd7	-41
143	0x23	35
144	0xf7	-9
145	0x0c	12
146	0xe4	-28
147	0x23	35
148	0x13	19
149	0xd9	-39
150	0x09	9
151	0x38	56
152	0xfc	-4
153	0xe3	-29
154	0x0b	11
155	0xe9	-23
156	0xd3	-45
157	0x27	39
158	0x1f	31
159	0xf8	-8
160	0xce	-50
161	0x21	33
162	0x12	18
163	0xea	-22
164	0x14	20
165	0x35	53
166	0x27	39
167	0x0a	10
168	0x29	41
169	0x1e	30
170	0xea	-22
171	0xf3	-13
172	0x12	18
173	0x2f	47
174	0x20	32
175	0x01	1
176	0x03	3
177	0x0f	15
178	0x00	0
179	0xef	-17
180	0x1f	31
181	0x23	35
182	0xee	-18
183	0xef	-17
184	0xf7	-9
185	0xfe	-2
186	0x08	8
187	0x04	4
188	0x12	18
189	0xf7	-9
190	0x1c	28
191	0x2d	45
192	0x16	22
193	0xf9	-7
194	0x2a	42
195	0xb6	-74
196	0xd6	-42
197	0xee	-18
198	0x08	8
199	0x00	0
200	0x23	35
201	0xf5	-11
202	0x34	52
203	0x05	5
204	0xde	-34
205	0xf6	-10
206	0xaa	-86
207	0x02	2
208	0xcc	-52
209	0x19	25
210	0x0e	14
211	0x06	6
212	0x15	21
213	0x0f	15
214	0xf5	-11
215	0xd3	-45
216	0xe0	-32
217	0x25	37
218	0x62	98
219	0xf5	-11
220	0xf9	-7
221	0x17	23
222	0x02	2
223	0x18	24
224	0xf9	-7
225	0x16	22
226	0x0e	14
227	0x28	40
228	0x2b	43
229	0xfe	-2
230	0xf5	-11
231	0xed	-19
232	0x0d	13
233	0x28	40
234	0x3b	59
235	0x14	20
236	0xde	-34
237	0xc6	-58
238	0x22	34
239	0x04	4
240	0x2b	43
241	0x87	-121
242	0xdc	-36
243	0x14	20
244	0xfa	-6
245	0x08	8
246	0x15	21
247	0xe7	-25
248	0xaa	-86
249	0x0d	13
250	0xff	-1
251	0x2a	42
252	0x16	22
253	0xe6	-26
254	0x16	22
255	0xc8	-56

tfl.pseudo_qconst35 i1 [64, 3, 3, 32]
0	0xea	-22
1	0x12	18
2	0xf8	-8
3	0xca	-54
4	0xda	-38
5	0xa8	-88
6	0xf3	-13
7	0x07	7
8	0x26	38
9	0xdd	-35
10	0x09	9
11	0xbe	-66
12	0xe3	-29
13	0x19	25
14	0xba	-70
15	0xa6	-90
16	0x9d	-99
17	0xde	-34
18	0xea	-22
19	0x49	73
20	0xee	-18
21	0xb9	-71
22	0x02	2
23	0x04	4
24	0xe6	-26
25	0x06	6
26	0xe8	-24
27	0x19	25
28	0x01	1
29	0xd5	-43
30	0x23	35
31	0x2c	44
32	0x4d	77
33	0x27	39
34	0x35	53
35	0x07	7
36	0xd4	-44
37	0x0c	12
38	0xed	-19
39	0x3f	63
40	0x0a	10
41	0xcc	-52
42	0x31	49
43	0xed	-19
44	0xd7	-41
45	0xbd	-67
46	0xf9	-7
47	0x13	19
48	0xde	-34
49	0xe6	-26
50	0x27	39
51	0x0e	14
52	0xb9	-71
53	0xe5	-27
54	0x0e	14
55	0x01	1
56	0x51	81
57	0xfd	-3
58	0x0f	15
59	0x08	8
60	0x6d	109
61	0xbf	-65
62	0xf3	-13
63	0xdc	-36
64	0xd3	-45
65	0x63	99
66	0x32	50
67	0xd7	-41
68	0xf4	-12
69	0x3d	61
70	0x1d	29
71	0xf6	-10
72	0xec	-20
73	0xee	-18
74	0xfc	-4
75	0x0a	10
76	0x98	-104
77	0xf2	-14
78	0x1d	29
79	0x29	41
80	0x28	40
81	0xb6	-74
82	0x26	38
83	0x0c	12
84	0xf1	-15
85	0x10	16
86	0x04	4
87	0xce	-50
88	0xf0	-16
89	0xfb	-5
90	0xf6	-10
91	0x20	32
92	0x23	35
93	0x99	-103
94	0xdf	-33
95	0xf4	-12
96	0x0b	11
97	0x1d	29
98	0xdd	-35
99	0xde	-34
100	0x11	17
101	0x14	20
102	0xfc	-4
103	0x08	8
104	0xe5	-27
105	0x03	3
106	0x29	41
107	0x1a	26
108	0x00	0
109	0x17	23
110	0x01	1
111	0xc6	-58
112	0xeb	-21
113	0xf4	-12
114	0x28	40
115	0x40	64
116	0x41	65
117	0xf1	-15
118	0x29	41
119	0x3d	61
120	0xcf	-49
121	0x0a	10
122	0xdd	-35
123	0xe3	-29
124	0x41	65
125	0xe7	-25
126	0x27	39
127	0x24	36
128	0x50	80
129	0x08	8
130	0xea	-22
131	0xeb	-21
132	0x12	18
133	0xf1	-15
134	0x33	51
135	0x33	51
136	0x0e	14
137	0xff	-1
138	0xe2	-30
139	0xfc	-4
140	0xe5	-27
141	0xe4	-28
142	0xdf	-33
143	0xd1	-47
144	0x06	6
145	0xf5	-11
146	0x23	35
147	0xfa	-6
148	0x0d	13
149	0xeb	-21
150	0xd0	-48
151	0xc8	-56
152	0x1a	26
153	0xfb	-5
154	0x2e	46
155	0xe9	-23
156	0x44	68
157	0xde	-34
158	0xd8	-40
159	0x1e	30
160	0x10	16
161	0x2d	45
162	0x25	37
163	0x13	19
164	0xe3	-29
165	0x29	41
166	0xe6	-26
167	0x5c	92
168	0xd1	-47
169	0xe7	-25
170	0xd2	-46
171	0xfe	-2
172	0xf5	-11
173	0xbb	-69
174	0x1d	29
175	0x07	7
176	0xef	-17
177	0x21	33
178	0x0a	10
179	0x06	6
180	0x1f	31
181	0xda	-38
182	0xfe	-2
183	0x29	41
184	0xe6	-26
185	0xf7	-9
186	0x1c	28
187	0xfc	-4
188	0x52	82
189	0xe1	-31
190	0xd1	-47
191	0xee	-18
192	0xb9	-71
193	0x14	20
194	0xb1	-79
195	0xf2	-14
196	0xfd	-3
197	0x04	4
198	0xe3	-29
199	0x19	25
200	0xcb	-53
201	0x0c	12
202	0x1c	28
203	0xf0	-16
204	0xf4	-12
205	0x02	2
206	0xf8	-8
207	0xe0	-32
208	0xb5	-75
209	0xf7	-9
210	0xfd	-3
211	0x5c	92
212	0x0a	10
213	0x9f	-97
214	0x36	54
215	0x56	86
216	0xe4	-28
217	0xb6	-74
218	0x22	34
219	0x0b	11
220	0x09	9
221	0xd2	-46
222	0x26	38
223	0x06	6
224	0x00	0
225	0x2c	44
226	0xc7	-57
227	0xdf	-33
228	0xdd	-35
229	0xc3	-61
230	0xe3	-29
231	0xed	-19
232	0xdd	-35
233	0x3b	59
234	0xf8	-8
235	0x81	-127
236	0xff	-1
237	0xeb	-21
238	0xd4	-44
239	0xa4	-92
240	0xdc	-36
241	0x11	17
242	0x33	51
243	0x2a	42
244	0xcf	-49
245	0xbf	-65
246	0xd3	-45
247	0x01	1
248	0xc5	-59
249	0x02	2
250	0xfe	-2
251	0xf2	-14
252	0xfb	-5
253	0xd8	-40
254	0xbf	-65
255	0x07	7
